…
The value is the same before and after calling `init_weights` of EncoderDecoderMask2FormerAug  

decode_head.mask_embed.2.bias - torch.Size([1024]): 
The value is the same before and after calling `init_weights` of EncoderDecoderMask2FormerAug  

decode_head.mask_embed.4.weight - torch.Size([1024, 1024]): 
The value is the same before and after calling `init_weights` of EncoderDecoderMask2FormerAug  

decode_head.mask_embed.4.bias - torch.Size([1024]): 
The value is the same before and after calling `init_weights` of EncoderDecoderMask2FormerAug  
2022-10-29 11:06:24,761 - mmseg - INFO - EncoderDecoderMask2FormerAug(
  (backbone): BEiTAdapter(
    (patch_embed): PatchEmbed(
      (proj): Conv2d(3, 1408, kernel_size=(16, 16), stride=(16, 16))
    )
    (pos_drop): Dropout(p=0.0, inplace=False)
    (blocks): ModuleList(
      (0): Block(
        (norm1): LayerNorm((1408,), eps=1e-06, elementwise_affine=True)
        (attn): Attention(
          (qkv): Linear(in_features=1408, out_features=4224, bias=False)
          (attn_drop): Dropout(p=0.0, inplace=False)
          (proj): Linear(in_features=1408, out_features=1408, bias=True)
          (proj_drop): Dropout(p=0.0, inplace=False)
        )
        (drop_path): Identity()
        (norm2): LayerNorm((1408,), eps=1e-06, elementwise_affine=True)
        (mlp): Mlp(
          (fc1): Linear(in_features=1408, out_features=6144, bias=True)
          (act): GELU()
          (fc2): Linear(in_features=6144, out_features=1408, bias=True)
          (drop): Dropout(p=0.0, inplace=False)
        )
      )
      (1): Block(
        (norm1): LayerNorm((1408,), eps=1e-06, elementwise_affine=True)
        (attn): Attention(
          (qkv): Linear(in_features=1408, out_features=4224, bias=False)
          (attn_drop): Dropout(p=0.0, inplace=False)
          (proj): Linear(in_features=1408, out_features=1408, bias=True)
          (proj_drop): Dropout(p=0.0, inplace=False)
        )
        (drop_path): DropPath(p=0.012820512987673283)
        (norm2): LayerNorm((1408,), eps=1e-06, elementwise_affine=True)
        (mlp): Mlp(
          (fc1): Linear(in_features=1408, out_features=6144, bias=True)
          (act): GELU()
          (fc2): Linear(in_features=6144, out_features=1408, bias=True)
          (drop): Dropout(p=0.0, inplace=False)
        )
      )
      (2): Block(
        (norm1): LayerNorm((1408,), eps=1e-06, elementwise_affine=True)
        (attn): Attention(
          (qkv): Linear(in_features=1408, out_features=4224, bias=False)
          (attn_drop): Dropout(p=0.0, inplace=False)
          (proj): Linear(in_features=1408, out_features=1408, bias=True)
          (proj_drop): Dropout(p=0.0, inplace=False)
        )
        (drop_path): DropPath(p=0.025641025975346565)
        (norm2): LayerNorm((1408,), eps=1e-06, elementwise_affine=True)
        (mlp): Mlp(
          (fc1): Linear(in_features=1408, out_features=6144, bias=True)
          (act): GELU()
          (fc2): Linear(in_features=6144, out_features=1408, bias=True)
          (drop): Dropout(p=0.0, inplace=False)
        )
      )
      (3): Block(
        (norm1): LayerNorm((1408,), eps=1e-06, elementwise_affine=True)
        (attn): Attention(
          (qkv): Linear(in_features=1408, out_features=4224, bias=False)
          (attn_drop): Dropout(p=0.0, inplace=False)
          (proj): Linear(in_features=1408, out_features=1408, bias=True)
          (proj_drop): Dropout(p=0.0, inplace=False)
        )
        (drop_path): DropPath(p=0.03846153989434242)
        (norm2): LayerNorm((1408,), eps=1e-06, elementwise_affine=True)
        (mlp): Mlp(
          (fc1): Linear(in_features=1408, out_features=6144, bias=True)
          (act): GELU()
          (fc2): Linear(in_features=6144, out_features=1408, bias=True)
          (drop): Dropout(p=0.0, inplace=False)
        )
      )
      (4): Block(
        (norm1): LayerNorm((1408,), eps=1e-06, elementwise_affine=True)
        (attn): Attention(
          (qkv): Linear(in_features=1408, out_features=4224, bias=False)
          (attn_drop): Dropout(p=0.0, inplace=False)
          (proj): Linear(in_features=1408, out_features=1408, bias=True)
          (proj_drop): Dropout(p=0.0, inplace=False)
        )
        (drop_path): DropPath(p=0.05128205195069313)
        (norm2): LayerNorm((1408,), eps=1e-06, elementwise_affine=True)
        (mlp): Mlp(
          (fc1): Linear(in_features=1408, out_features=6144, bias=True)
          (act): GELU()
          (fc2): Linear(in_features=6144, out_features=1408, bias=True)
          (drop): Dropout(p=0.0, inplace=False)
        )
      )
      (5): Block(
        (norm1): LayerNorm((1408,), eps=1e-06, elementwise_affine=True)
        (attn): Attention(
          (qkv): Linear(in_features=1408, out_features=4224, bias=False)
          (attn_drop): Dropout(p=0.0, inplace=False)
          (proj): Linear(in_features=1408, out_features=1408, bias=True)
          (proj_drop): Dropout(p=0.0, inplace=False)
        )
        (drop_path): DropPath(p=0.06410256773233414)
        (norm2): LayerNorm((1408,), eps=1e-06, elementwise_affine=True)
        (mlp): Mlp(
          (fc1): Linear(in_features=1408, out_features=6144, bias=True)
          (act): GELU()
          (fc2): Linear(in_features=6144, out_features=1408, bias=True)
          (drop): Dropout(p=0.0, inplace=False)
        )
      )
      (6): Block(
        (norm1): LayerNorm((1408,), eps=1e-06, elementwise_affine=True)
        (attn): Attention(
          (qkv): Linear(in_features=1408, out_features=4224, bias=False)
          (attn_drop): Dropout(p=0.0, inplace=False)
          (proj): Linear(in_features=1408, out_features=1408, bias=True)
          (proj_drop): Dropout(p=0.0, inplace=False)
        )
        (drop_path): DropPath(p=0.07692307978868484)
        (norm2): LayerNorm((1408,), eps=1e-06, elementwise_affine=True)
        (mlp): Mlp(
          (fc1): Linear(in_features=1408, out_features=6144, bias=True)
          (act): GELU()
          (fc2): Linear(in_features=6144, out_features=1408, bias=True)
          (drop): Dropout(p=0.0, inplace=False)
        )
      )
      (7): Block(
        (norm1): LayerNorm((1408,), eps=1e-06, elementwise_affine=True)
        (attn): Attention(
          (qkv): Linear(in_features=1408, out_features=4224, bias=False)
          (attn_drop): Dropout(p=0.0, inplace=False)
          (proj): Linear(in_features=1408, out_features=1408, bias=True)
          (proj_drop): Dropout(p=0.0, inplace=False)
        )
        (drop_path): DropPath(p=0.08974359184503555)
        (norm2): LayerNorm((1408,), eps=1e-06, elementwise_affine=True)
        (mlp): Mlp(
          (fc1): Linear(in_features=1408, out_features=6144, bias=True)
          (act): GELU()
          (fc2): Linear(in_features=6144, out_features=1408, bias=True)
          (drop): Dropout(p=0.0, inplace=False)
        )
      )
      (8): Block(
        (norm1): LayerNorm((1408,), eps=1e-06, elementwise_affine=True)
        (attn): Attention(
          (qkv): Linear(in_features=1408, out_features=4224, bias=False)
          (attn_drop): Dropout(p=0.0, inplace=False)
          (proj): Linear(in_features=1408, out_features=1408, bias=True)
          (proj_drop): Dropout(p=0.0, inplace=False)
        )
        (drop_path): DropPath(p=0.10256410390138626)
        (norm2): LayerNorm((1408,), eps=1e-06, elementwise_affine=True)
        (mlp): Mlp(
          (fc1): Linear(in_features=1408, out_features=6144, bias=True)
          (act): GELU()
          (fc2): Linear(in_features=6144, out_features=1408, bias=True)
          (drop): Dropout(p=0.0, inplace=False)
        )
      )
      (9): Block(
        (norm1): LayerNorm((1408,), eps=1e-06, elementwise_affine=True)
        (attn): Attention(
          (qkv): Linear(in_features=1408, out_features=4224, bias=False)
          (attn_drop): Dropout(p=0.0, inplace=False)
          (proj): Linear(in_features=1408, out_features=1408, bias=True)
          (proj_drop): Dropout(p=0.0, inplace=False)
        )
        (drop_path): DropPath(p=0.11538461595773697)
        (norm2): LayerNorm((1408,), eps=1e-06, elementwise_affine=True)
        (mlp): Mlp(
          (fc1): Linear(in_features=1408, out_features=6144, bias=True)
          (act): GELU()
          (fc2): Linear(in_features=6144, out_features=1408, bias=True)
          (drop): Dropout(p=0.0, inplace=False)
        )
      )
      (10): Block(
        (norm1): LayerNorm((1408,), eps=1e-06, elementwise_affine=True)
        (attn): Attention(
          (qkv): Linear(in_features=1408, out_features=4224, bias=False)
          (attn_drop): Dropout(p=0.0, inplace=False)
          (proj): Linear(in_features=1408, out_features=1408, bias=True)
          (proj_drop): Dropout(p=0.0, inplace=False)
        )
        (drop_path): DropPath(p=0.12820513546466827)
        (norm2): LayerNorm((1408,), eps=1e-06, elementwise_affine=True)
        (mlp): Mlp(
          (fc1): Linear(in_features=1408, out_features=6144, bias=True)
          (act): GELU()
          (fc2): Linear(in_features=6144, out_features=1408, bias=True)
          (drop): Dropout(p=0.0, inplace=False)
        )
      )
      (11): Block(
        (norm1): LayerNorm((1408,), eps=1e-06, elementwise_affine=True)
        (attn): Attention(
          (qkv): Linear(in_features=1408, out_features=4224, bias=False)
          (attn_drop): Dropout(p=0.0, inplace=False)
          (proj): Linear(in_features=1408, out_features=1408, bias=True)
          (proj_drop): Dropout(p=0.0, inplace=False)
        )
        (drop_path): DropPath(p=0.14102564752101898)
        (norm2): LayerNorm((1408,), eps=1e-06, elementwise_affine=True)
        (mlp): Mlp(
          (fc1): Linear(in_features=1408, out_features=6144, bias=True)
          (act): GELU()
          (fc2): Linear(in_features=6144, out_features=1408, bias=True)
          (drop): Dropout(p=0.0, inplace=False)
        )
      )
      (12): Block(
        (norm1): LayerNorm((1408,), eps=1e-06, elementwise_affine=True)
        (attn): Attention(
          (qkv): Linear(in_features=1408, out_features=4224, bias=False)
          (attn_drop): Dropout(p=0.0, inplace=False)
          (proj): Linear(in_features=1408, out_features=1408, bias=True)
          (proj_drop): Dropout(p=0.0, inplace=False)
        )
        (drop_path): DropPath(p=0.1538461595773697)
        (norm2): LayerNorm((1408,), eps=1e-06, elementwise_affine=True)
        (mlp): Mlp(
          (fc1): Linear(in_features=1408, out_features=6144, bias=True)
          (act): GELU()
          (fc2): Linear(in_features=6144, out_features=1408, bias=True)
          (drop): Dropout(p=0.0, inplace=False)
        )
      )
      (13): Block(
        (norm1): LayerNorm((1408,), eps=1e-06, elementwise_affine=True)
        (attn): Attention(
          (qkv): Linear(in_features=1408, out_features=4224, bias=False)
          (attn_drop): Dropout(p=0.0, inplace=False)
          (proj): Linear(in_features=1408, out_features=1408, bias=True)
          (proj_drop): Dropout(p=0.0, inplace=False)
        )
        (drop_path): DropPath(p=0.1666666716337204)
        (norm2): LayerNorm((1408,), eps=1e-06, elementwise_affine=True)
        (mlp): Mlp(
          (fc1): Linear(in_features=1408, out_features=6144, bias=True)
          (act): GELU()
          (fc2): Linear(in_features=6144, out_features=1408, bias=True)
          (drop): Dropout(p=0.0, inplace=False)
        )
      )
      (14): Block(
        (norm1): LayerNorm((1408,), eps=1e-06, elementwise_affine=True)
        (attn): Attention(
          (qkv): Linear(in_features=1408, out_features=4224, bias=False)
          (attn_drop): Dropout(p=0.0, inplace=False)
          (proj): Linear(in_features=1408, out_features=1408, bias=True)
          (proj_drop): Dropout(p=0.0, inplace=False)
        )
        (drop_path): DropPath(p=0.1794871836900711)
        (norm2): LayerNorm((1408,), eps=1e-06, elementwise_affine=True)
        (mlp): Mlp(
          (fc1): Linear(in_features=1408, out_features=6144, bias=True)
          (act): GELU()
          (fc2): Linear(in_features=6144, out_features=1408, bias=True)
          (drop): Dropout(p=0.0, inplace=False)
        )
      )
      (15): Block(
        (norm1): LayerNorm((1408,), eps=1e-06, elementwise_affine=True)
        (attn): Attention(
          (qkv): Linear(in_features=1408, out_features=4224, bias=False)
          (attn_drop): Dropout(p=0.0, inplace=False)
          (proj): Linear(in_features=1408, out_features=1408, bias=True)
          (proj_drop): Dropout(p=0.0, inplace=False)
        )
        (drop_path): DropPath(p=0.19230769574642181)
        (norm2): LayerNorm((1408,), eps=1e-06, elementwise_affine=True)
        (mlp): Mlp(
          (fc1): Linear(in_features=1408, out_features=6144, bias=True)
          (act): GELU()
          (fc2): Linear(in_features=6144, out_features=1408, bias=True)
          (drop): Dropout(p=0.0, inplace=False)
        )
      )
      (16): Block(
        (norm1): LayerNorm((1408,), eps=1e-06, elementwise_affine=True)
        (attn): Attention(
          (qkv): Linear(in_features=1408, out_features=4224, bias=False)
          (attn_drop): Dropout(p=0.0, inplace=False)
          (proj): Linear(in_features=1408, out_features=1408, bias=True)
          (proj_drop): Dropout(p=0.0, inplace=False)
        )
        (drop_path): DropPath(p=0.20512820780277252)
        (norm2): LayerNorm((1408,), eps=1e-06, elementwise_affine=True)
        (mlp): Mlp(
          (fc1): Linear(in_features=1408, out_features=6144, bias=True)
          (act): GELU()
          (fc2): Linear(in_features=6144, out_features=1408, bias=True)
          (drop): Dropout(p=0.0, inplace=False)
        )
      )
      (17): Block(
        (norm1): LayerNorm((1408,), eps=1e-06, elementwise_affine=True)
        (attn): Attention(
          (qkv): Linear(in_features=1408, out_features=4224, bias=False)
          (attn_drop): Dropout(p=0.0, inplace=False)
          (proj): Linear(in_features=1408, out_features=1408, bias=True)
          (proj_drop): Dropout(p=0.0, inplace=False)
        )
        (drop_path): DropPath(p=0.21794871985912323)
        (norm2): LayerNorm((1408,), eps=1e-06, elementwise_affine=True)
        (mlp): Mlp(
          (fc1): Linear(in_features=1408, out_features=6144, bias=True)
          (act): GELU()
          (fc2): Linear(in_features=6144, out_features=1408, bias=True)
          (drop): Dropout(p=0.0, inplace=False)
        )
      )
      (18): Block(
        (norm1): LayerNorm((1408,), eps=1e-06, elementwise_affine=True)
        (attn): Attention(
          (qkv): Linear(in_features=1408, out_features=4224, bias=False)
          (attn_drop): Dropout(p=0.0, inplace=False)
          (proj): Linear(in_features=1408, out_features=1408, bias=True)
          (proj_drop): Dropout(p=0.0, inplace=False)
        )
        (drop_path): DropPath(p=0.23076923191547394)
        (norm2): LayerNorm((1408,), eps=1e-06, elementwise_affine=True)
        (mlp): Mlp(
          (fc1): Linear(in_features=1408, out_features=6144, bias=True)
          (act): GELU()
          (fc2): Linear(in_features=6144, out_features=1408, bias=True)
          (drop): Dropout(p=0.0, inplace=False)
        )
      )
      (19): Block(
        (norm1): LayerNorm((1408,), eps=1e-06, elementwise_affine=True)
        (attn): Attention(
          (qkv): Linear(in_features=1408, out_features=4224, bias=False)
          (attn_drop): Dropout(p=0.0, inplace=False)
          (proj): Linear(in_features=1408, out_features=1408, bias=True)
          (proj_drop): Dropout(p=0.0, inplace=False)
        )
        (drop_path): DropPath(p=0.24358974397182465)
        (norm2): LayerNorm((1408,), eps=1e-06, elementwise_affine=True)
        (mlp): Mlp(
          (fc1): Linear(in_features=1408, out_features=6144, bias=True)
          (act): GELU()
          (fc2): Linear(in_features=6144, out_features=1408, bias=True)
          (drop): Dropout(p=0.0, inplace=False)
        )
      )
      (20): Block(
        (norm1): LayerNorm((1408,), eps=1e-06, elementwise_affine=True)
        (attn): Attention(
          (qkv): Linear(in_features=1408, out_features=4224, bias=False)
          (attn_drop): Dropout(p=0.0, inplace=False)
          (proj): Linear(in_features=1408, out_features=1408, bias=True)
          (proj_drop): Dropout(p=0.0, inplace=False)
        )
        (drop_path): DropPath(p=0.25641027092933655)
        (norm2): LayerNorm((1408,), eps=1e-06, elementwise_affine=True)
        (mlp): Mlp(
          (fc1): Linear(in_features=1408, out_features=6144, bias=True)
          (act): GELU()
          (fc2): Linear(in_features=6144, out_features=1408, bias=True)
          (drop): Dropout(p=0.0, inplace=False)
        )
      )
      (21): Block(
        (norm1): LayerNorm((1408,), eps=1e-06, elementwise_affine=True)
        (attn): Attention(
          (qkv): Linear(in_features=1408, out_features=4224, bias=False)
          (attn_drop): Dropout(p=0.0, inplace=False)
          (proj): Linear(in_features=1408, out_features=1408, bias=True)
          (proj_drop): Dropout(p=0.0, inplace=False)
        )
        (drop_path): DropPath(p=0.26923078298568726)
        (norm2): LayerNorm((1408,), eps=1e-06, elementwise_affine=True)
        (mlp): Mlp(
          (fc1): Linear(in_features=1408, out_features=6144, bias=True)
          (act): GELU()
          (fc2): Linear(in_features=6144, out_features=1408, bias=True)
          (drop): Dropout(p=0.0, inplace=False)
        )
      )
      (22): Block(
        (norm1): LayerNorm((1408,), eps=1e-06, elementwise_affine=True)
        (attn): Attention(
          (qkv): Linear(in_features=1408, out_features=4224, bias=False)
          (attn_drop): Dropout(p=0.0, inplace=False)
          (proj): Linear(in_features=1408, out_features=1408, bias=True)
          (proj_drop): Dropout(p=0.0, inplace=False)
        )
        (drop_path): DropPath(p=0.28205129504203796)
        (norm2): LayerNorm((1408,), eps=1e-06, elementwise_affine=True)
        (mlp): Mlp(
          (fc1): Linear(in_features=1408, out_features=6144, bias=True)
          (act): GELU()
          (fc2): Linear(in_features=6144, out_features=1408, bias=True)
          (drop): Dropout(p=0.0, inplace=False)
        )
      )
      (23): Block(
        (norm1): LayerNorm((1408,), eps=1e-06, elementwise_affine=True)
        (attn): Attention(
          (qkv): Linear(in_features=1408, out_features=4224, bias=False)
          (attn_drop): Dropout(p=0.0, inplace=False)
          (proj): Linear(in_features=1408, out_features=1408, bias=True)
          (proj_drop): Dropout(p=0.0, inplace=False)
        )
        (drop_path): DropPath(p=0.29487180709838867)
        (norm2): LayerNorm((1408,), eps=1e-06, elementwise_affine=True)
        (mlp): Mlp(
          (fc1): Linear(in_features=1408, out_features=6144, bias=True)
          (act): GELU()
          (fc2): Linear(in_features=6144, out_features=1408, bias=True)
          (drop): Dropout(p=0.0, inplace=False)
        )
      )
      (24): Block(
        (norm1): LayerNorm((1408,), eps=1e-06, elementwise_affine=True)
        (attn): Attention(
          (qkv): Linear(in_features=1408, out_features=4224, bias=False)
          (attn_drop): Dropout(p=0.0, inplace=False)
          (proj): Linear(in_features=1408, out_features=1408, bias=True)
          (proj_drop): Dropout(p=0.0, inplace=False)
        )
        (drop_path): DropPath(p=0.3076923191547394)
        (norm2): LayerNorm((1408,), eps=1e-06, elementwise_affine=True)
        (mlp): Mlp(
          (fc1): Linear(in_features=1408, out_features=6144, bias=True)
          (act): GELU()
          (fc2): Linear(in_features=6144, out_features=1408, bias=True)
          (drop): Dropout(p=0.0, inplace=False)
        )
      )
      (25): Block(
        (norm1): LayerNorm((1408,), eps=1e-06, elementwise_affine=True)
        (attn): Attention(
          (qkv): Linear(in_features=1408, out_features=4224, bias=False)
          (attn_drop): Dropout(p=0.0, inplace=False)
          (proj): Linear(in_features=1408, out_features=1408, bias=True)
          (proj_drop): Dropout(p=0.0, inplace=False)
        )
        (drop_path): DropPath(p=0.3205128312110901)
        (norm2): LayerNorm((1408,), eps=1e-06, elementwise_affine=True)
        (mlp): Mlp(
          (fc1): Linear(in_features=1408, out_features=6144, bias=True)
          (act): GELU()
          (fc2): Linear(in_features=6144, out_features=1408, bias=True)
          (drop): Dropout(p=0.0, inplace=False)
        )
      )
      (26): Block(
        (norm1): LayerNorm((1408,), eps=1e-06, elementwise_affine=True)
        (attn): Attention(
          (qkv): Linear(in_features=1408, out_features=4224, bias=False)
          (attn_drop): Dropout(p=0.0, inplace=False)
          (proj): Linear(in_features=1408, out_features=1408, bias=True)
          (proj_drop): Dropout(p=0.0, inplace=False)
        )
        (drop_path): DropPath(p=0.3333333432674408)
        (norm2): LayerNorm((1408,), eps=1e-06, elementwise_affine=True)
        (mlp): Mlp(
          (fc1): Linear(in_features=1408, out_features=6144, bias=True)
          (act): GELU()
          (fc2): Linear(in_features=6144, out_features=1408, bias=True)
          (drop): Dropout(p=0.0, inplace=False)
        )
      )
      (27): Block(
        (norm1): LayerNorm((1408,), eps=1e-06, elementwise_affine=True)
        (attn): Attention(
          (qkv): Linear(in_features=1408, out_features=4224, bias=False)
          (attn_drop): Dropout(p=0.0, inplace=False)
          (proj): Linear(in_features=1408, out_features=1408, bias=True)
          (proj_drop): Dropout(p=0.0, inplace=False)
        )
        (drop_path): DropPath(p=0.3461538553237915)
        (norm2): LayerNorm((1408,), eps=1e-06, elementwise_affine=True)
        (mlp): Mlp(
          (fc1): Linear(in_features=1408, out_features=6144, bias=True)
          (act): GELU()
          (fc2): Linear(in_features=6144, out_features=1408, bias=True)
          (drop): Dropout(p=0.0, inplace=False)
        )
      )
      (28): Block(
        (norm1): LayerNorm((1408,), eps=1e-06, elementwise_affine=True)
        (attn): Attention(
          (qkv): Linear(in_features=1408, out_features=4224, bias=False)
          (attn_drop): Dropout(p=0.0, inplace=False)
          (proj): Linear(in_features=1408, out_features=1408, bias=True)
          (proj_drop): Dropout(p=0.0, inplace=False)
        )
        (drop_path): DropPath(p=0.3589743673801422)
        (norm2): LayerNorm((1408,), eps=1e-06, elementwise_affine=True)
        (mlp): Mlp(
          (fc1): Linear(in_features=1408, out_features=6144, bias=True)
          (act): GELU()
          (fc2): Linear(in_features=6144, out_features=1408, bias=True)
          (drop): Dropout(p=0.0, inplace=False)
        )
      )
      (29): Block(
        (norm1): LayerNorm((1408,), eps=1e-06, elementwise_affine=True)
        (attn): Attention(
          (qkv): Linear(in_features=1408, out_features=4224, bias=False)
          (attn_drop): Dropout(p=0.0, inplace=False)
          (proj): Linear(in_features=1408, out_features=1408, bias=True)
          (proj_drop): Dropout(p=0.0, inplace=False)
        )
        (drop_path): DropPath(p=0.3717948794364929)
        (norm2): LayerNorm((1408,), eps=1e-06, elementwise_affine=True)
        (mlp): Mlp(
          (fc1): Linear(in_features=1408, out_features=6144, bias=True)
          (act): GELU()
          (fc2): Linear(in_features=6144, out_features=1408, bias=True)
          (drop): Dropout(p=0.0, inplace=False)
        )
      )
      (30): Block(
        (norm1): LayerNorm((1408,), eps=1e-06, elementwise_affine=True)
        (attn): Attention(
          (qkv): Linear(in_features=1408, out_features=4224, bias=False)
          (attn_drop): Dropout(p=0.0, inplace=False)
          (proj): Linear(in_features=1408, out_features=1408, bias=True)
          (proj_drop): Dropout(p=0.0, inplace=False)
        )
        (drop_path): DropPath(p=0.38461539149284363)
        (norm2): LayerNorm((1408,), eps=1e-06, elementwise_affine=True)
        (mlp): Mlp(
          (fc1): Linear(in_features=1408, out_features=6144, bias=True)
          (act): GELU()
          (fc2): Linear(in_features=6144, out_features=1408, bias=True)
          (drop): Dropout(p=0.0, inplace=False)
        )
      )
      (31): Block(
        (norm1): LayerNorm((1408,), eps=1e-06, elementwise_affine=True)
        (attn): Attention(
          (qkv): Linear(in_features=1408, out_features=4224, bias=False)
          (attn_drop): Dropout(p=0.0, inplace=False)
          (proj): Linear(in_features=1408, out_features=1408, bias=True)
          (proj_drop): Dropout(p=0.0, inplace=False)
        )
        (drop_path): DropPath(p=0.39743590354919434)
        (norm2): LayerNorm((1408,), eps=1e-06, elementwise_affine=True)
        (mlp): Mlp(
          (fc1): Linear(in_features=1408, out_features=6144, bias=True)
          (act): GELU()
          (fc2): Linear(in_features=6144, out_features=1408, bias=True)
          (drop): Dropout(p=0.0, inplace=False)
        )
      )
      (32): Block(
        (norm1): LayerNorm((1408,), eps=1e-06, elementwise_affine=True)
        (attn): Attention(
          (qkv): Linear(in_features=1408, out_features=4224, bias=False)
          (attn_drop): Dropout(p=0.0, inplace=False)
          (proj): Linear(in_features=1408, out_features=1408, bias=True)
          (proj_drop): Dropout(p=0.0, inplace=False)
        )
        (drop_path): DropPath(p=0.41025641560554504)
        (norm2): LayerNorm((1408,), eps=1e-06, elementwise_affine=True)
        (mlp): Mlp(
          (fc1): Linear(in_features=1408, out_features=6144, bias=True)
          (act): GELU()
          (fc2): Linear(in_features=6144, out_features=1408, bias=True)
          (drop): Dropout(p=0.0, inplace=False)
        )
      )
      (33): Block(
        (norm1): LayerNorm((1408,), eps=1e-06, elementwise_affine=True)
        (attn): Attention(
          (qkv): Linear(in_features=1408, out_features=4224, bias=False)
          (attn_drop): Dropout(p=0.0, inplace=False)
          (proj): Linear(in_features=1408, out_features=1408, bias=True)
          (proj_drop): Dropout(p=0.0, inplace=False)
        )
        (drop_path): DropPath(p=0.42307692766189575)
        (norm2): LayerNorm((1408,), eps=1e-06, elementwise_affine=True)
        (mlp): Mlp(
          (fc1): Linear(in_features=1408, out_features=6144, bias=True)
          (act): GELU()
          (fc2): Linear(in_features=6144, out_features=1408, bias=True)
          (drop): Dropout(p=0.0, inplace=False)
        )
      )
      (34): Block(
        (norm1): LayerNorm((1408,), eps=1e-06, elementwise_affine=True)
        (attn): Attention(
          (qkv): Linear(in_features=1408, out_features=4224, bias=False)
          (attn_drop): Dropout(p=0.0, inplace=False)
          (proj): Linear(in_features=1408, out_features=1408, bias=True)
          (proj_drop): Dropout(p=0.0, inplace=False)
        )
        (drop_path): DropPath(p=0.43589743971824646)
        (norm2): LayerNorm((1408,), eps=1e-06, elementwise_affine=True)
        (mlp): Mlp(
          (fc1): Linear(in_features=1408, out_features=6144, bias=True)
          (act): GELU()
          (fc2): Linear(in_features=6144, out_features=1408, bias=True)
          (drop): Dropout(p=0.0, inplace=False)
        )
      )
      (35): Block(
        (norm1): LayerNorm((1408,), eps=1e-06, elementwise_affine=True)
        (attn): Attention(
          (qkv): Linear(in_features=1408, out_features=4224, bias=False)
          (attn_drop): Dropout(p=0.0, inplace=False)
          (proj): Linear(in_features=1408, out_features=1408, bias=True)
          (proj_drop): Dropout(p=0.0, inplace=False)
        )
        (drop_path): DropPath(p=0.44871795177459717)
        (norm2): LayerNorm((1408,), eps=1e-06, elementwise_affine=True)
        (mlp): Mlp(
          (fc1): Linear(in_features=1408, out_features=6144, bias=True)
          (act): GELU()
          (fc2): Linear(in_features=6144, out_features=1408, bias=True)
          (drop): Dropout(p=0.0, inplace=False)
        )
      )
      (36): Block(
        (norm1): LayerNorm((1408,), eps=1e-06, elementwise_affine=True)
        (attn): Attention(
          (qkv): Linear(in_features=1408, out_features=4224, bias=False)
          (attn_drop): Dropout(p=0.0, inplace=False)
          (proj): Linear(in_features=1408, out_features=1408, bias=True)
          (proj_drop): Dropout(p=0.0, inplace=False)
        )
        (drop_path): DropPath(p=0.4615384638309479)
        (norm2): LayerNorm((1408,), eps=1e-06, elementwise_affine=True)
        (mlp): Mlp(
          (fc1): Linear(in_features=1408, out_features=6144, bias=True)
          (act): GELU()
          (fc2): Linear(in_features=6144, out_features=1408, bias=True)
          (drop): Dropout(p=0.0, inplace=False)
        )
      )
      (37): Block(
        (norm1): LayerNorm((1408,), eps=1e-06, elementwise_affine=True)
        (attn): Attention(
          (qkv): Linear(in_features=1408, out_features=4224, bias=False)
          (attn_drop): Dropout(p=0.0, inplace=False)
          (proj): Linear(in_features=1408, out_features=1408, bias=True)
          (proj_drop): Dropout(p=0.0, inplace=False)
        )
        (drop_path): DropPath(p=0.4743589758872986)
        (norm2): LayerNorm((1408,), eps=1e-06, elementwise_affine=True)
        (mlp): Mlp(
          (fc1): Linear(in_features=1408, out_features=6144, bias=True)
          (act): GELU()
          (fc2): Linear(in_features=6144, out_features=1408, bias=True)
          (drop): Dropout(p=0.0, inplace=False)
        )
      )
      (38): Block(
        (norm1): LayerNorm((1408,), eps=1e-06, elementwise_affine=True)
        (attn): Attention(
          (qkv): Linear(in_features=1408, out_features=4224, bias=False)
          (attn_drop): Dropout(p=0.0, inplace=False)
          (proj): Linear(in_features=1408, out_features=1408, bias=True)
          (proj_drop): Dropout(p=0.0, inplace=False)
        )
        (drop_path): DropPath(p=0.4871794879436493)
        (norm2): LayerNorm((1408,), eps=1e-06, elementwise_affine=True)
        (mlp): Mlp(
          (fc1): Linear(in_features=1408, out_features=6144, bias=True)
          (act): GELU()
          (fc2): Linear(in_features=6144, out_features=1408, bias=True)
          (drop): Dropout(p=0.0, inplace=False)
        )
      )
      (39): Block(
        (norm1): LayerNorm((1408,), eps=1e-06, elementwise_affine=True)
        (attn): Attention(
          (qkv): Linear(in_features=1408, out_features=4224, bias=False)
          (attn_drop): Dropout(p=0.0, inplace=False)
          (proj): Linear(in_features=1408, out_features=1408, bias=True)
          (proj_drop): Dropout(p=0.0, inplace=False)
        )
        (drop_path): DropPath(p=0.5)
        (norm2): LayerNorm((1408,), eps=1e-06, elementwise_affine=True)
        (mlp): Mlp(
          (fc1): Linear(in_features=1408, out_features=6144, bias=True)
          (act): GELU()
          (fc2): Linear(in_features=6144, out_features=1408, bias=True)
          (drop): Dropout(p=0.0, inplace=False)
        )
      )
    )
    (spm): SpatialPriorModule(
      (stem): Sequential(
        (0): Conv2d(3, 64, kernel_size=(3, 3), stride=(2, 2), padding=(1, 1), bias=False)
        (1): SyncBatchNorm(64, eps=1e-05, momentum=0.1, affine=True, track_running_stats=True)
        (2): ReLU(inplace=True)
        (3): Conv2d(64, 64, kernel_size=(3, 3), stride=(1, 1), padding=(1, 1), bias=False)
        (4): SyncBatchNorm(64, eps=1e-05, momentum=0.1, affine=True, track_running_stats=True)
        (5): ReLU(inplace=True)
        (6): Conv2d(64, 64, kernel_size=(3, 3), stride=(1, 1), padding=(1, 1), bias=False)
        (7): SyncBatchNorm(64, eps=1e-05, momentum=0.1, affine=True, track_running_stats=True)
        (8): ReLU(inplace=True)
        (9): MaxPool2d(kernel_size=3, stride=2, padding=1, dilation=1, ceil_mode=False)
      )
      (conv2): Sequential(
        (0): Conv2d(64, 128, kernel_size=(3, 3), stride=(2, 2), padding=(1, 1), bias=False)
        (1): SyncBatchNorm(128, eps=1e-05, momentum=0.1, affine=True, track_running_stats=True)
        (2): ReLU(inplace=True)
      )
      (conv3): Sequential(
        (0): Conv2d(128, 256, kernel_size=(3, 3), stride=(2, 2), padding=(1, 1), bias=False)
        (1): SyncBatchNorm(256, eps=1e-05, momentum=0.1, affine=True, track_running_stats=True)
        (2): ReLU(inplace=True)
      )
      (conv4): Sequential(
        (0): Conv2d(256, 256, kernel_size=(3, 3), stride=(2, 2), padding=(1, 1), bias=False)
        (1): SyncBatchNorm(256, eps=1e-05, momentum=0.1, affine=True, track_running_stats=True)
        (2): ReLU(inplace=True)
      )
      (fc1): Conv2d(64, 1408, kernel_size=(1, 1), stride=(1, 1))
      (fc2): Conv2d(128, 1408, kernel_size=(1, 1), stride=(1, 1))
      (fc3): Conv2d(256, 1408, kernel_size=(1, 1), stride=(1, 1))
      (fc4): Conv2d(256, 1408, kernel_size=(1, 1), stride=(1, 1))
    )
    (interactions): Sequential(
      (0): InteractionBlockWithCls(
        (injector): Injector(
          (query_norm): LayerNorm((1408,), eps=1e-06, elementwise_affine=True)
          (feat_norm): LayerNorm((1408,), eps=1e-06, elementwise_affine=True)
          (attn): MSDeformAttn(
            (sampling_offsets): Linear(in_features=1408, out_features=384, bias=True)
            (attention_weights): Linear(in_features=1408, out_features=192, bias=True)
            (value_proj): Linear(in_features=1408, out_features=704, bias=True)
            (output_proj): Linear(in_features=704, out_features=1408, bias=True)
          )
        )
        (extractor): Extractor(
          (query_norm): LayerNorm((1408,), eps=1e-06, elementwise_affine=True)
          (feat_norm): LayerNorm((1408,), eps=1e-06, elementwise_affine=True)
          (attn): MSDeformAttn(
            (sampling_offsets): Linear(in_features=1408, out_features=128, bias=True)
            (attention_weights): Linear(in_features=1408, out_features=64, bias=True)
            (value_proj): Linear(in_features=1408, out_features=704, bias=True)
            (output_proj): Linear(in_features=704, out_features=1408, bias=True)
          )
          (ffn): ConvFFN(
            (fc1): Linear(in_features=1408, out_features=352, bias=True)
            (dwconv): DWConv(
              (dwconv): Conv2d(352, 352, kernel_size=(3, 3), stride=(1, 1), padding=(1, 1), groups=352)
            )
            (act): GELU()
            (fc2): Linear(in_features=352, out_features=1408, bias=True)
            (drop): Dropout(p=0.0, inplace=False)
          )
          (ffn_norm): LayerNorm((1408,), eps=1e-06, elementwise_affine=True)
          (drop_path): DropPath()
        )
      )
      (1): InteractionBlockWithCls(
        (injector): Injector(
          (query_norm): LayerNorm((1408,), eps=1e-06, elementwise_affine=True)
          (feat_norm): LayerNorm((1408,), eps=1e-06, elementwise_affine=True)
          (attn): MSDeformAttn(
            (sampling_offsets): Linear(in_features=1408, out_features=384, bias=True)
            (attention_weights): Linear(in_features=1408, out_features=192, bias=True)
            (value_proj): Linear(in_features=1408, out_features=704, bias=True)
            (output_proj): Linear(in_features=704, out_features=1408, bias=True)
          )
        )
        (extractor): Extractor(
          (query_norm): LayerNorm((1408,), eps=1e-06, elementwise_affine=True)
          (feat_norm): LayerNorm((1408,), eps=1e-06, elementwise_affine=True)
          (attn): MSDeformAttn(
            (sampling_offsets): Linear(in_features=1408, out_features=128, bias=True)
            (attention_weights): Linear(in_features=1408, out_features=64, bias=True)
            (value_proj): Linear(in_features=1408, out_features=704, bias=True)
            (output_proj): Linear(in_features=704, out_features=1408, bias=True)
          )
          (ffn): ConvFFN(
            (fc1): Linear(in_features=1408, out_features=352, bias=True)
            (dwconv): DWConv(
              (dwconv): Conv2d(352, 352, kernel_size=(3, 3), stride=(1, 1), padding=(1, 1), groups=352)
            )
            (act): GELU()
            (fc2): Linear(in_features=352, out_features=1408, bias=True)
            (drop): Dropout(p=0.0, inplace=False)
          )
          (ffn_norm): LayerNorm((1408,), eps=1e-06, elementwise_affine=True)
          (drop_path): DropPath()
        )
      )
      (2): InteractionBlockWithCls(
        (injector): Injector(
          (query_norm): LayerNorm((1408,), eps=1e-06, elementwise_affine=True)
          (feat_norm): LayerNorm((1408,), eps=1e-06, elementwise_affine=True)
          (attn): MSDeformAttn(
            (sampling_offsets): Linear(in_features=1408, out_features=384, bias=True)
            (attention_weights): Linear(in_features=1408, out_features=192, bias=True)
            (value_proj): Linear(in_features=1408, out_features=704, bias=True)
            (output_proj): Linear(in_features=704, out_features=1408, bias=True)
          )
        )
        (extractor): Extractor(
          (query_norm): LayerNorm((1408,), eps=1e-06, elementwise_affine=True)
          (feat_norm): LayerNorm((1408,), eps=1e-06, elementwise_affine=True)
          (attn): MSDeformAttn(
            (sampling_offsets): Linear(in_features=1408, out_features=128, bias=True)
            (attention_weights): Linear(in_features=1408, out_features=64, bias=True)
            (value_proj): Linear(in_features=1408, out_features=704, bias=True)
            (output_proj): Linear(in_features=704, out_features=1408, bias=True)
          )
          (ffn): ConvFFN(
            (fc1): Linear(in_features=1408, out_features=352, bias=True)
            (dwconv): DWConv(
              (dwconv): Conv2d(352, 352, kernel_size=(3, 3), stride=(1, 1), padding=(1, 1), groups=352)
            )
            (act): GELU()
            (fc2): Linear(in_features=352, out_features=1408, bias=True)
            (drop): Dropout(p=0.0, inplace=False)
          )
          (ffn_norm): LayerNorm((1408,), eps=1e-06, elementwise_affine=True)
          (drop_path): DropPath()
        )
      )
      (3): InteractionBlockWithCls(
        (injector): Injector(
          (query_norm): LayerNorm((1408,), eps=1e-06, elementwise_affine=True)
          (feat_norm): LayerNorm((1408,), eps=1e-06, elementwise_affine=True)
          (attn): MSDeformAttn(
            (sampling_offsets): Linear(in_features=1408, out_features=384, bias=True)
            (attention_weights): Linear(in_features=1408, out_features=192, bias=True)
            (value_proj): Linear(in_features=1408, out_features=704, bias=True)
            (output_proj): Linear(in_features=704, out_features=1408, bias=True)
          )
        )
        (extractor): Extractor(
          (query_norm): LayerNorm((1408,), eps=1e-06, elementwise_affine=True)
          (feat_norm): LayerNorm((1408,), eps=1e-06, elementwise_affine=True)
          (attn): MSDeformAttn(
            (sampling_offsets): Linear(in_features=1408, out_features=128, bias=True)
            (attention_weights): Linear(in_features=1408, out_features=64, bias=True)
            (value_proj): Linear(in_features=1408, out_features=704, bias=True)
            (output_proj): Linear(in_features=704, out_features=1408, bias=True)
          )
          (ffn): ConvFFN(
            (fc1): Linear(in_features=1408, out_features=352, bias=True)
            (dwconv): DWConv(
              (dwconv): Conv2d(352, 352, kernel_size=(3, 3), stride=(1, 1), padding=(1, 1), groups=352)
            )
            (act): GELU()
            (fc2): Linear(in_features=352, out_features=1408, bias=True)
            (drop): Dropout(p=0.0, inplace=False)
          )
          (ffn_norm): LayerNorm((1408,), eps=1e-06, elementwise_affine=True)
          (drop_path): DropPath()
        )
        (extra_extractors): Sequential(
          (0): Extractor(
            (query_norm): LayerNorm((1408,), eps=1e-06, elementwise_affine=True)
            (feat_norm): LayerNorm((1408,), eps=1e-06, elementwise_affine=True)
            (attn): MSDeformAttn(
              (sampling_offsets): Linear(in_features=1408, out_features=128, bias=True)
              (attention_weights): Linear(in_features=1408, out_features=64, bias=True)
              (value_proj): Linear(in_features=1408, out_features=704, bias=True)
              (output_proj): Linear(in_features=704, out_features=1408, bias=True)
            )
            (ffn): ConvFFN(
              (fc1): Linear(in_features=1408, out_features=352, bias=True)
              (dwconv): DWConv(
                (dwconv): Conv2d(352, 352, kernel_size=(3, 3), stride=(1, 1), padding=(1, 1), groups=352)
              )
              (act): GELU()
              (fc2): Linear(in_features=352, out_features=1408, bias=True)
              (drop): Dropout(p=0.0, inplace=False)
            )
            (ffn_norm): LayerNorm((1408,), eps=1e-06, elementwise_affine=True)
            (drop_path): DropPath()
          )
          (1): Extractor(
            (query_norm): LayerNorm((1408,), eps=1e-06, elementwise_affine=True)
            (feat_norm): LayerNorm((1408,), eps=1e-06, elementwise_affine=True)
            (attn): MSDeformAttn(
              (sampling_offsets): Linear(in_features=1408, out_features=128, bias=True)
              (attention_weights): Linear(in_features=1408, out_features=64, bias=True)
              (value_proj): Linear(in_features=1408, out_features=704, bias=True)
              (output_proj): Linear(in_features=704, out_features=1408, bias=True)
            )
            (ffn): ConvFFN(
              (fc1): Linear(in_features=1408, out_features=352, bias=True)
              (dwconv): DWConv(
                (dwconv): Conv2d(352, 352, kernel_size=(3, 3), stride=(1, 1), padding=(1, 1), groups=352)
              )
              (act): GELU()
              (fc2): Linear(in_features=352, out_features=1408, bias=True)
              (drop): Dropout(p=0.0, inplace=False)
            )
            (ffn_norm): LayerNorm((1408,), eps=1e-06, elementwise_affine=True)
            (drop_path): DropPath()
          )
        )
      )
    )
    (up): ConvTranspose2d(1408, 1408, kernel_size=(2, 2), stride=(2, 2))
    (norm1): SyncBatchNorm(1408, eps=1e-05, momentum=0.1, affine=True, track_running_stats=True)
    (norm2): SyncBatchNorm(1408, eps=1e-05, momentum=0.1, affine=True, track_running_stats=True)
    (norm3): SyncBatchNorm(1408, eps=1e-05, momentum=0.1, affine=True, track_running_stats=True)
    (norm4): SyncBatchNorm(1408, eps=1e-05, momentum=0.1, affine=True, track_running_stats=True)
  )
  (decode_head): Mask2FormerHead(
    input_transform=multiple_select, ignore_index=255, align_corners=False
    (loss_decode): CrossEntropyLoss(avg_non_ignore=False)
    (conv_seg): None
    (dropout): Dropout2d(p=0.1, inplace=False)
    (pixel_decoder): MSDeformAttnPixelDecoder(
      (input_convs): ModuleList(
        (0): ConvModule(
          (conv): Conv2d(1408, 1024, kernel_size=(1, 1), stride=(1, 1))
          (gn): GroupNorm(32, 1024, eps=1e-05, affine=True)
        )
        (1): ConvModule(
          (conv): Conv2d(1408, 1024, kernel_size=(1, 1), stride=(1, 1))
          (gn): GroupNorm(32, 1024, eps=1e-05, affine=True)
        )
        (2): ConvModule(
          (conv): Conv2d(1408, 1024, kernel_size=(1, 1), stride=(1, 1))
          (gn): GroupNorm(32, 1024, eps=1e-05, affine=True)
        )
      )
      (encoder): DetrTransformerEncoder(
        (layers): ModuleList(
          (0): BaseTransformerLayer(
            (attentions): ModuleList(
              (0): MultiScaleDeformableAttention(
                (dropout): Dropout(p=0.0, inplace=False)
                (sampling_offsets): Linear(in_features=1024, out_features=768, bias=True)
                (attention_weights): Linear(in_features=1024, out_features=384, bias=True)
                (value_proj): Linear(in_features=1024, out_features=1024, bias=True)
                (output_proj): Linear(in_features=1024, out_features=1024, bias=True)
              )
            )
            (ffns): ModuleList(
              (0): FFN(
                (activate): ReLU(inplace=True)
                (layers): Sequential(
                  (0): Sequential(
                    (0): Linear(in_features=1024, out_features=4096, bias=True)
                    (1): ReLU(inplace=True)
                    (2): Dropout(p=0.0, inplace=False)
                  )
                  (1): Linear(in_features=4096, out_features=1024, bias=True)
                  (2): Dropout(p=0.0, inplace=False)
                )
                (dropout_layer): Identity()
              )
            )
            (norms): ModuleList(
              (0): LayerNorm((1024,), eps=1e-05, elementwise_affine=True)
              (1): LayerNorm((1024,), eps=1e-05, elementwise_affine=True)
            )
          )
          (1): BaseTransformerLayer(
            (attentions): ModuleList(
              (0): MultiScaleDeformableAttention(
                (dropout): Dropout(p=0.0, inplace=False)
                (sampling_offsets): Linear(in_features=1024, out_features=768, bias=True)
                (attention_weights): Linear(in_features=1024, out_features=384, bias=True)
                (value_proj): Linear(in_features=1024, out_features=1024, bias=True)
                (output_proj): Linear(in_features=1024, out_features=1024, bias=True)
              )
            )
            (ffns): ModuleList(
              (0): FFN(
                (activate): ReLU(inplace=True)
                (layers): Sequential(
                  (0): Sequential(
                    (0): Linear(in_features=1024, out_features=4096, bias=True)
                    (1): ReLU(inplace=True)
                    (2): Dropout(p=0.0, inplace=False)
                  )
                  (1): Linear(in_features=4096, out_features=1024, bias=True)
                  (2): Dropout(p=0.0, inplace=False)
                )
                (dropout_layer): Identity()
              )
            )
            (norms): ModuleList(
              (0): LayerNorm((1024,), eps=1e-05, elementwise_affine=True)
              (1): LayerNorm((1024,), eps=1e-05, elementwise_affine=True)
            )
          )
          (2): BaseTransformerLayer(
            (attentions): ModuleList(
              (0): MultiScaleDeformableAttention(
                (dropout): Dropout(p=0.0, inplace=False)
                (sampling_offsets): Linear(in_features=1024, out_features=768, bias=True)
                (attention_weights): Linear(in_features=1024, out_features=384, bias=True)
                (value_proj): Linear(in_features=1024, out_features=1024, bias=True)
                (output_proj): Linear(in_features=1024, out_features=1024, bias=True)
              )
            )
            (ffns): ModuleList(
              (0): FFN(
                (activate): ReLU(inplace=True)
                (layers): Sequential(
                  (0): Sequential(
                    (0): Linear(in_features=1024, out_features=4096, bias=True)
                    (1): ReLU(inplace=True)
                    (2): Dropout(p=0.0, inplace=False)
                  )
                  (1): Linear(in_features=4096, out_features=1024, bias=True)
                  (2): Dropout(p=0.0, inplace=False)
                )
                (dropout_layer): Identity()
              )
            )
            (norms): ModuleList(
              (0): LayerNorm((1024,), eps=1e-05, elementwise_affine=True)
              (1): LayerNorm((1024,), eps=1e-05, elementwise_affine=True)
            )
          )
          (3): BaseTransformerLayer(
            (attentions): ModuleList(
              (0): MultiScaleDeformableAttention(
                (dropout): Dropout(p=0.0, inplace=False)
                (sampling_offsets): Linear(in_features=1024, out_features=768, bias=True)
                (attention_weights): Linear(in_features=1024, out_features=384, bias=True)
                (value_proj): Linear(in_features=1024, out_features=1024, bias=True)
                (output_proj): Linear(in_features=1024, out_features=1024, bias=True)
              )
            )
            (ffns): ModuleList(
              (0): FFN(
                (activate): ReLU(inplace=True)
                (layers): Sequential(
                  (0): Sequential(
                    (0): Linear(in_features=1024, out_features=4096, bias=True)
                    (1): ReLU(inplace=True)
                    (2): Dropout(p=0.0, inplace=False)
                  )
                  (1): Linear(in_features=4096, out_features=1024, bias=True)
                  (2): Dropout(p=0.0, inplace=False)
                )
                (dropout_layer): Identity()
              )
            )
            (norms): ModuleList(
              (0): LayerNorm((1024,), eps=1e-05, elementwise_affine=True)
              (1): LayerNorm((1024,), eps=1e-05, elementwise_affine=True)
            )
          )
          (4): BaseTransformerLayer(
            (attentions): ModuleList(
              (0): MultiScaleDeformableAttention(
                (dropout): Dropout(p=0.0, inplace=False)
                (sampling_offsets): Linear(in_features=1024, out_features=768, bias=True)
                (attention_weights): Linear(in_features=1024, out_features=384, bias=True)
                (value_proj): Linear(in_features=1024, out_features=1024, bias=True)
                (output_proj): Linear(in_features=1024, out_features=1024, bias=True)
              )
            )
            (ffns): ModuleList(
              (0): FFN(
                (activate): ReLU(inplace=True)
                (layers): Sequential(
                  (0): Sequential(
                    (0): Linear(in_features=1024, out_features=4096, bias=True)
                    (1): ReLU(inplace=True)
                    (2): Dropout(p=0.0, inplace=False)
                  )
                  (1): Linear(in_features=4096, out_features=1024, bias=True)
                  (2): Dropout(p=0.0, inplace=False)
                )
                (dropout_layer): Identity()
              )
            )
            (norms): ModuleList(
              (0): LayerNorm((1024,), eps=1e-05, elementwise_affine=True)
              (1): LayerNorm((1024,), eps=1e-05, elementwise_affine=True)
            )
          )
          (5): BaseTransformerLayer(
            (attentions): ModuleList(
              (0): MultiScaleDeformableAttention(
                (dropout): Dropout(p=0.0, inplace=False)
                (sampling_offsets): Linear(in_features=1024, out_features=768, bias=True)
                (attention_weights): Linear(in_features=1024, out_features=384, bias=True)
                (value_proj): Linear(in_features=1024, out_features=1024, bias=True)
                (output_proj): Linear(in_features=1024, out_features=1024, bias=True)
              )
            )
            (ffns): ModuleList(
              (0): FFN(
                (activate): ReLU(inplace=True)
                (layers): Sequential(
                  (0): Sequential(
                    (0): Linear(in_features=1024, out_features=4096, bias=True)
                    (1): ReLU(inplace=True)
                    (2): Dropout(p=0.0, inplace=False)
                  )
                  (1): Linear(in_features=4096, out_features=1024, bias=True)
                  (2): Dropout(p=0.0, inplace=False)
                )
                (dropout_layer): Identity()
              )
            )
            (norms): ModuleList(
              (0): LayerNorm((1024,), eps=1e-05, elementwise_affine=True)
              (1): LayerNorm((1024,), eps=1e-05, elementwise_affine=True)
            )
          )
        )
      )
      (postional_encoding): SinePositionalEncoding(num_feats=512, temperature=10000, normalize=True, scale=6.283185307179586, eps=1e-06)
      (level_encoding): Embedding(3, 1024)
      (lateral_convs): ModuleList(
        (0): ConvModule(
          (conv): Conv2d(1408, 1024, kernel_size=(1, 1), stride=(1, 1), bias=False)
          (gn): GroupNorm(32, 1024, eps=1e-05, affine=True)
        )
      )
      (output_convs): ModuleList(
        (0): ConvModule(
          (conv): Conv2d(1024, 1024, kernel_size=(3, 3), stride=(1, 1), padding=(1, 1), bias=False)
          (gn): GroupNorm(32, 1024, eps=1e-05, affine=True)
          (activate): ReLU(inplace=True)
        )
      )
      (mask_feature): Conv2d(1024, 1024, kernel_size=(1, 1), stride=(1, 1))
    )
    (transformer_decoder): DetrTransformerDecoder(
      (layers): ModuleList(
        (0): DetrTransformerDecoderLayer(
          (attentions): ModuleList(
            (0): MultiheadAttention(
              (attn): MultiheadAttention(
                (out_proj): _LinearWithBias(in_features=1024, out_features=1024, bias=True)
              )
              (proj_drop): Dropout(p=0.0, inplace=False)
              (dropout_layer): Identity()
            )
            (1): MultiheadAttention(
              (attn): MultiheadAttention(
                (out_proj): _LinearWithBias(in_features=1024, out_features=1024, bias=True)
              )
              (proj_drop): Dropout(p=0.0, inplace=False)
              (dropout_layer): Identity()
            )
          )
          (ffns): ModuleList(
            (0): FFN(
              (activate): ReLU(inplace=True)
              (layers): Sequential(
                (0): Sequential(
                  (0): Linear(in_features=1024, out_features=4096, bias=True)
                  (1): ReLU(inplace=True)
                  (2): Dropout(p=0.0, inplace=False)
                )
                (1): Linear(in_features=4096, out_features=1024, bias=True)
                (2): Dropout(p=0.0, inplace=False)
              )
              (dropout_layer): Identity()
            )
          )
          (norms): ModuleList(
            (0): LayerNorm((1024,), eps=1e-05, elementwise_affine=True)
            (1): LayerNorm((1024,), eps=1e-05, elementwise_affine=True)
            (2): LayerNorm((1024,), eps=1e-05, elementwise_affine=True)
          )
        )
        (1): DetrTransformerDecoderLayer(
          (attentions): ModuleList(
            (0): MultiheadAttention(
              (attn): MultiheadAttention(
                (out_proj): _LinearWithBias(in_features=1024, out_features=1024, bias=True)
              )
              (proj_drop): Dropout(p=0.0, inplace=False)
              (dropout_layer): Identity()
…
              (proj_drop): Dropout(p=0.0, inplace=False)
              (dropout_layer): Identity()
            )
            (1): MultiheadAttention(
              (attn): MultiheadAttention(
                (out_proj): _LinearWithBias(in_features=1024, out_features=1024, bias=True)
              )
              (proj_drop): Dropout(p=0.0, inplace=False)
              (dropout_layer): Identity()
            )
          )
          (ffns): ModuleList(
            (0): FFN(
              (activate): ReLU(inplace=True)
              (layers): Sequential(
                (0): Sequential(
                  (0): Linear(in_features=1024, out_features=4096, bias=True)
                  (1): ReLU(inplace=True)
                  (2): Dropout(p=0.0, inplace=False)
                )
                (1): Linear(in_features=4096, out_features=1024, bias=True)
                (2): Dropout(p=0.0, inplace=False)
              )
              (dropout_layer): Identity()
            )
          )
          (norms): ModuleList(
            (0): LayerNorm((1024,), eps=1e-05, elementwise_affine=True)
            (1): LayerNorm((1024,), eps=1e-05, elementwise_affine=True)
            (2): LayerNorm((1024,), eps=1e-05, elementwise_affine=True)
          )
        )
      )
      (post_norm): LayerNorm((1024,), eps=1e-05, elementwise_affine=True)
    )
    (decoder_input_projs): ModuleList(
      (0): Identity()
      (1): Identity()
      (2): Identity()
    )
    (decoder_positional_encoding): SinePositionalEncoding(num_feats=512, temperature=10000, normalize=True, scale=6.283185307179586, eps=1e-06)
    (query_embed): Embedding(200, 1024)
    (query_feat): Embedding(200, 1024)
    (level_embed): Embedding(3, 1024)
    (cls_embed): Linear(in_features=1024, out_features=151, bias=True)
    (mask_embed): Sequential(
      (0): Linear(in_features=1024, out_features=1024, bias=True)
      (1): ReLU(inplace=True)
      (2): Linear(in_features=1024, out_features=1024, bias=True)
      (3): ReLU(inplace=True)
      (4): Linear(in_features=1024, out_features=1024, bias=True)
    )
    (loss_cls): CrossEntropyLoss(avg_non_ignore=False)
    (loss_mask): CrossEntropyLoss(avg_non_ignore=False)
    (loss_dice): DiceLoss()
  )
)
2022-10-29 11:06:25,305 - mmseg - INFO - Loaded 20210 images
2022-10-29 11:06:33,277 - mmseg - INFO - load checkpoint from local path: /sharefs/baaivision/yxf/outputs/beitXclip/large-giant/150/merge30M_beit_g_patch14_224_sz224_mask105_lr1e-3_b20.98_eps1e-6_dpr0.1_ls0.0_bsz16x8x32_ep150_wmep2_cj0.0_ftpye2_ltype1_mixup0.0_abspos/seg/mask2former_beitXclip_adapter_giant_896_80k_cocostuff164k_ss/lr1e-5_lrd0.95_enc6_dec8/iter_60000.pth
…
