…
size mismatch for blocks.11.attn.rope.freqs_cos: copying a param with shape torch.Size([16, 16, 64]) from checkpoint, the shape in current model is torch.Size([1024, 64]).
size mismatch for blocks.11.attn.rope.freqs_sin: copying a param with shape torch.Size([16, 16, 64]) from checkpoint, the shape in current model is torch.Size([1024, 64]).
unexpected key in source state_dict: mask_token, norm.weight, norm.bias, lm_head.weight, lm_head.bias

missing keys in source state_dict: fpn1.0.weight, fpn1.0.bias, fpn1.1.weight, fpn1.1.bias, fpn1.1.running_mean, fpn1.1.running_var, fpn1.3.weight, fpn1.3.bias, fpn2.0.weight, fpn2.0.bias

2023-03-18 17:33:18,274 - mmseg - INFO - EncoderDecoder(
  (backbone): EVA2(
    (patch_embed): PatchEmbed(
      (proj): Conv2d(3, 768, kernel_size=(16, 16), stride=(16, 16))
    )
    (pos_drop): Dropout(p=0.0, inplace=False)
    (rope): VisionRotaryEmbeddingFast()
    (blocks): ModuleList(
      (0): Block(
        (norm1): FusedLayerNorm(torch.Size([768]), eps=1e-06, elementwise_affine=True)
        (attn): Attention(
          (q_proj): Linear(in_features=768, out_features=768, bias=False)
          (k_proj): Linear(in_features=768, out_features=768, bias=False)
          (v_proj): Linear(in_features=768, out_features=768, bias=False)
          (attn_drop): Dropout(p=0.0, inplace=False)
          (proj): Linear(in_features=768, out_features=768, bias=True)
          (proj_drop): Dropout(p=0.0, inplace=False)
          (rope): VisionRotaryEmbeddingFast()
        )
        (drop_path): Identity()
        (norm2): FusedLayerNorm(torch.Size([768]), eps=1e-06, elementwise_affine=True)
        (mlp): SwiGLU(
          (w1): Linear(in_features=768, out_features=2048, bias=True)
          (w2): Linear(in_features=768, out_features=2048, bias=True)
          (act): SiLU()
          (ffn_ln): FusedLayerNorm(torch.Size([2048]), eps=1e-06, elementwise_affine=True)
          (w3): Linear(in_features=2048, out_features=768, bias=True)
          (drop): Dropout(p=0.0, inplace=False)
        )
      )
      (1): Block(
        (norm1): FusedLayerNorm(torch.Size([768]), eps=1e-06, elementwise_affine=True)
        (attn): Attention(
          (q_proj): Linear(in_features=768, out_features=768, bias=False)
          (k_proj): Linear(in_features=768, out_features=768, bias=False)
          (v_proj): Linear(in_features=768, out_features=768, bias=False)
          (attn_drop): Dropout(p=0.0, inplace=False)
          (proj): Linear(in_features=768, out_features=768, bias=True)
          (proj_drop): Dropout(p=0.0, inplace=False)
          (rope): VisionRotaryEmbeddingFast()
        )
        (drop_path): DropPath(p=0.013636364601552486)
        (norm2): FusedLayerNorm(torch.Size([768]), eps=1e-06, elementwise_affine=True)
        (mlp): SwiGLU(
          (w1): Linear(in_features=768, out_features=2048, bias=True)
          (w2): Linear(in_features=768, out_features=2048, bias=True)
          (act): SiLU()
          (ffn_ln): FusedLayerNorm(torch.Size([2048]), eps=1e-06, elementwise_affine=True)
          (w3): Linear(in_features=2048, out_features=768, bias=True)
          (drop): Dropout(p=0.0, inplace=False)
        )
      )
      (2): Block(
        (norm1): FusedLayerNorm(torch.Size([768]), eps=1e-06, elementwise_affine=True)
        (attn): Attention(
          (q_proj): Linear(in_features=768, out_features=768, bias=False)
          (k_proj): Linear(in_features=768, out_features=768, bias=False)
          (v_proj): Linear(in_features=768, out_features=768, bias=False)
          (attn_drop): Dropout(p=0.0, inplace=False)
          (proj): Linear(in_features=768, out_features=768, bias=True)
          (proj_drop): Dropout(p=0.0, inplace=False)
          (rope): VisionRotaryEmbeddingFast()
        )
        (drop_path): DropPath(p=0.027272729203104973)
        (norm2): FusedLayerNorm(torch.Size([768]), eps=1e-06, elementwise_affine=True)
        (mlp): SwiGLU(
          (w1): Linear(in_features=768, out_features=2048, bias=True)
          (w2): Linear(in_features=768, out_features=2048, bias=True)
          (act): SiLU()
          (ffn_ln): FusedLayerNorm(torch.Size([2048]), eps=1e-06, elementwise_affine=True)
          (w3): Linear(in_features=2048, out_features=768, bias=True)
          (drop): Dropout(p=0.0, inplace=False)
        )
      )
      (3): Block(
        (norm1): FusedLayerNorm(torch.Size([768]), eps=1e-06, elementwise_affine=True)
        (attn): Attention(
          (q_proj): Linear(in_features=768, out_features=768, bias=False)
          (k_proj): Linear(in_features=768, out_features=768, bias=False)
          (v_proj): Linear(in_features=768, out_features=768, bias=False)
          (attn_drop): Dropout(p=0.0, inplace=False)
          (proj): Linear(in_features=768, out_features=768, bias=True)
          (proj_drop): Dropout(p=0.0, inplace=False)
          (rope): VisionRotaryEmbeddingFast()
        )
        (drop_path): DropPath(p=0.040909092873334885)
        (norm2): FusedLayerNorm(torch.Size([768]), eps=1e-06, elementwise_affine=True)
        (mlp): SwiGLU(
          (w1): Linear(in_features=768, out_features=2048, bias=True)
          (w2): Linear(in_features=768, out_features=2048, bias=True)
          (act): SiLU()
          (ffn_ln): FusedLayerNorm(torch.Size([2048]), eps=1e-06, elementwise_affine=True)
          (w3): Linear(in_features=2048, out_features=768, bias=True)
          (drop): Dropout(p=0.0, inplace=False)
        )
      )
      (4): Block(
        (norm1): FusedLayerNorm(torch.Size([768]), eps=1e-06, elementwise_affine=True)
        (attn): Attention(
          (q_proj): Linear(in_features=768, out_features=768, bias=False)
          (k_proj): Linear(in_features=768, out_features=768, bias=False)
          (v_proj): Linear(in_features=768, out_features=768, bias=False)
          (attn_drop): Dropout(p=0.0, inplace=False)
          (proj): Linear(in_features=768, out_features=768, bias=True)
          (proj_drop): Dropout(p=0.0, inplace=False)
          (rope): VisionRotaryEmbeddingFast()
        )
        (drop_path): DropPath(p=0.054545458406209946)
        (norm2): FusedLayerNorm(torch.Size([768]), eps=1e-06, elementwise_affine=True)
        (mlp): SwiGLU(
          (w1): Linear(in_features=768, out_features=2048, bias=True)
          (w2): Linear(in_features=768, out_features=2048, bias=True)
          (act): SiLU()
          (ffn_ln): FusedLayerNorm(torch.Size([2048]), eps=1e-06, elementwise_affine=True)
          (w3): Linear(in_features=2048, out_features=768, bias=True)
          (drop): Dropout(p=0.0, inplace=False)
        )
      )
      (5): Block(
        (norm1): FusedLayerNorm(torch.Size([768]), eps=1e-06, elementwise_affine=True)
        (attn): Attention(
          (q_proj): Linear(in_features=768, out_features=768, bias=False)
          (k_proj): Linear(in_features=768, out_features=768, bias=False)
          (v_proj): Linear(in_features=768, out_features=768, bias=False)
          (attn_drop): Dropout(p=0.0, inplace=False)
          (proj): Linear(in_features=768, out_features=768, bias=True)
          (proj_drop): Dropout(p=0.0, inplace=False)
          (rope): VisionRotaryEmbeddingFast()
        )
        (drop_path): DropPath(p=0.06818182021379471)
        (norm2): FusedLayerNorm(torch.Size([768]), eps=1e-06, elementwise_affine=True)
        (mlp): SwiGLU(
          (w1): Linear(in_features=768, out_features=2048, bias=True)
          (w2): Linear(in_features=768, out_features=2048, bias=True)
          (act): SiLU()
          (ffn_ln): FusedLayerNorm(torch.Size([2048]), eps=1e-06, elementwise_affine=True)
          (w3): Linear(in_features=2048, out_features=768, bias=True)
          (drop): Dropout(p=0.0, inplace=False)
        )
      )
      (6): Block(
        (norm1): FusedLayerNorm(torch.Size([768]), eps=1e-06, elementwise_affine=True)
        (attn): Attention(
          (q_proj): Linear(in_features=768, out_features=768, bias=False)
          (k_proj): Linear(in_features=768, out_features=768, bias=False)
          (v_proj): Linear(in_features=768, out_features=768, bias=False)
          (attn_drop): Dropout(p=0.0, inplace=False)
          (proj): Linear(in_features=768, out_features=768, bias=True)
          (proj_drop): Dropout(p=0.0, inplace=False)
          (rope): VisionRotaryEmbeddingFast()
        )
        (drop_path): DropPath(p=0.08181818574666977)
        (norm2): FusedLayerNorm(torch.Size([768]), eps=1e-06, elementwise_affine=True)
        (mlp): SwiGLU(
          (w1): Linear(in_features=768, out_features=2048, bias=True)
          (w2): Linear(in_features=768, out_features=2048, bias=True)
          (act): SiLU()
          (ffn_ln): FusedLayerNorm(torch.Size([2048]), eps=1e-06, elementwise_affine=True)
          (w3): Linear(in_features=2048, out_features=768, bias=True)
          (drop): Dropout(p=0.0, inplace=False)
        )
      )
      (7): Block(
        (norm1): FusedLayerNorm(torch.Size([768]), eps=1e-06, elementwise_affine=True)
        (attn): Attention(
          (q_proj): Linear(in_features=768, out_features=768, bias=False)
          (k_proj): Linear(in_features=768, out_features=768, bias=False)
          (v_proj): Linear(in_features=768, out_features=768, bias=False)
          (attn_drop): Dropout(p=0.0, inplace=False)
          (proj): Linear(in_features=768, out_features=768, bias=True)
          (proj_drop): Dropout(p=0.0, inplace=False)
          (rope): VisionRotaryEmbeddingFast()
        )
        (drop_path): DropPath(p=0.09545454382896423)
        (norm2): FusedLayerNorm(torch.Size([768]), eps=1e-06, elementwise_affine=True)
        (mlp): SwiGLU(
          (w1): Linear(in_features=768, out_features=2048, bias=True)
          (w2): Linear(in_features=768, out_features=2048, bias=True)
          (act): SiLU()
          (ffn_ln): FusedLayerNorm(torch.Size([2048]), eps=1e-06, elementwise_affine=True)
          (w3): Linear(in_features=2048, out_features=768, bias=True)
          (drop): Dropout(p=0.0, inplace=False)
        )
      )
      (8): Block(
        (norm1): FusedLayerNorm(torch.Size([768]), eps=1e-06, elementwise_affine=True)
        (attn): Attention(
          (q_proj): Linear(in_features=768, out_features=768, bias=False)
          (k_proj): Linear(in_features=768, out_features=768, bias=False)
          (v_proj): Linear(in_features=768, out_features=768, bias=False)
          (attn_drop): Dropout(p=0.0, inplace=False)
          (proj): Linear(in_features=768, out_features=768, bias=True)
          (proj_drop): Dropout(p=0.0, inplace=False)
          (rope): VisionRotaryEmbeddingFast()
        )
        (drop_path): DropPath(p=0.1090909093618393)
        (norm2): FusedLayerNorm(torch.Size([768]), eps=1e-06, elementwise_affine=True)
        (mlp): SwiGLU(
          (w1): Linear(in_features=768, out_features=2048, bias=True)
          (w2): Linear(in_features=768, out_features=2048, bias=True)
          (act): SiLU()
          (ffn_ln): FusedLayerNorm(torch.Size([2048]), eps=1e-06, elementwise_affine=True)
          (w3): Linear(in_features=2048, out_features=768, bias=True)
          (drop): Dropout(p=0.0, inplace=False)
        )
      )
      (9): Block(
        (norm1): FusedLayerNorm(torch.Size([768]), eps=1e-06, elementwise_affine=True)
        (attn): Attention(
          (q_proj): Linear(in_features=768, out_features=768, bias=False)
          (k_proj): Linear(in_features=768, out_features=768, bias=False)
          (v_proj): Linear(in_features=768, out_features=768, bias=False)
          (attn_drop): Dropout(p=0.0, inplace=False)
          (proj): Linear(in_features=768, out_features=768, bias=True)
          (proj_drop): Dropout(p=0.0, inplace=False)
          (rope): VisionRotaryEmbeddingFast()
        )
        (drop_path): DropPath(p=0.12272727489471436)
        (norm2): FusedLayerNorm(torch.Size([768]), eps=1e-06, elementwise_affine=True)
        (mlp): SwiGLU(
          (w1): Linear(in_features=768, out_features=2048, bias=True)
          (w2): Linear(in_features=768, out_features=2048, bias=True)
          (act): SiLU()
          (ffn_ln): FusedLayerNorm(torch.Size([2048]), eps=1e-06, elementwise_affine=True)
          (w3): Linear(in_features=2048, out_features=768, bias=True)
          (drop): Dropout(p=0.0, inplace=False)
        )
      )
      (10): Block(
        (norm1): FusedLayerNorm(torch.Size([768]), eps=1e-06, elementwise_affine=True)
        (attn): Attention(
          (q_proj): Linear(in_features=768, out_features=768, bias=False)
          (k_proj): Linear(in_features=768, out_features=768, bias=False)
          (v_proj): Linear(in_features=768, out_features=768, bias=False)
          (attn_drop): Dropout(p=0.0, inplace=False)
          (proj): Linear(in_features=768, out_features=768, bias=True)
          (proj_drop): Dropout(p=0.0, inplace=False)
          (rope): VisionRotaryEmbeddingFast()
        )
        (drop_path): DropPath(p=0.13636364042758942)
        (norm2): FusedLayerNorm(torch.Size([768]), eps=1e-06, elementwise_affine=True)
        (mlp): SwiGLU(
          (w1): Linear(in_features=768, out_features=2048, bias=True)
          (w2): Linear(in_features=768, out_features=2048, bias=True)
          (act): SiLU()
          (ffn_ln): FusedLayerNorm(torch.Size([2048]), eps=1e-06, elementwise_affine=True)
          (w3): Linear(in_features=2048, out_features=768, bias=True)
          (drop): Dropout(p=0.0, inplace=False)
        )
      )
      (11): Block(
        (norm1): FusedLayerNorm(torch.Size([768]), eps=1e-06, elementwise_affine=True)
        (attn): Attention(
          (q_proj): Linear(in_features=768, out_features=768, bias=False)
          (k_proj): Linear(in_features=768, out_features=768, bias=False)
          (v_proj): Linear(in_features=768, out_features=768, bias=False)
          (attn_drop): Dropout(p=0.0, inplace=False)
          (proj): Linear(in_features=768, out_features=768, bias=True)
          (proj_drop): Dropout(p=0.0, inplace=False)
          (rope): VisionRotaryEmbeddingFast()
        )
        (drop_path): DropPath(p=0.15000000596046448)
        (norm2): FusedLayerNorm(torch.Size([768]), eps=1e-06, elementwise_affine=True)
        (mlp): SwiGLU(
          (w1): Linear(in_features=768, out_features=2048, bias=True)
          (w2): Linear(in_features=768, out_features=2048, bias=True)
          (act): SiLU()
          (ffn_ln): FusedLayerNorm(torch.Size([2048]), eps=1e-06, elementwise_affine=True)
          (w3): Linear(in_features=2048, out_features=768, bias=True)
          (drop): Dropout(p=0.0, inplace=False)
        )
      )
    )
    (fpn1): Sequential(
      (0): ConvTranspose2d(768, 768, kernel_size=(2, 2), stride=(2, 2))
      (1): SyncBatchNorm(768, eps=1e-05, momentum=0.1, affine=True, track_running_stats=True)
      (2): GELU(approximate=none)
      (3): ConvTranspose2d(768, 768, kernel_size=(2, 2), stride=(2, 2))
    )
    (fpn2): Sequential(
      (0): ConvTranspose2d(768, 768, kernel_size=(2, 2), stride=(2, 2))
    )
    (fpn3): Identity()
    (fpn4): MaxPool2d(kernel_size=2, stride=2, padding=0, dilation=1, ceil_mode=False)
  )
  (decode_head): UPerHead(
    input_transform=multiple_select, ignore_index=255, align_corners=False
    (loss_decode): CrossEntropyLoss(avg_non_ignore=False)
    (conv_seg): Conv2d(768, 150, kernel_size=(1, 1), stride=(1, 1))
    (dropout): Dropout2d(p=0.1, inplace=False)
    (psp_modules): PPM(
      (0): Sequential(
        (0): AdaptiveAvgPool2d(output_size=1)
        (1): ConvModule(
          (conv): Conv2d(768, 768, kernel_size=(1, 1), stride=(1, 1), bias=False)
          (bn): SyncBatchNorm(768, eps=1e-05, momentum=0.1, affine=True, track_running_stats=True)
          (activate): ReLU(inplace=True)
        )
      )
      (1): Sequential(
        (0): AdaptiveAvgPool2d(output_size=2)
        (1): ConvModule(
          (conv): Conv2d(768, 768, kernel_size=(1, 1), stride=(1, 1), bias=False)
          (bn): SyncBatchNorm(768, eps=1e-05, momentum=0.1, affine=True, track_running_stats=True)
          (activate): ReLU(inplace=True)
        )
      )
      (2): Sequential(
        (0): AdaptiveAvgPool2d(output_size=3)
        (1): ConvModule(
          (conv): Conv2d(768, 768, kernel_size=(1, 1), stride=(1, 1), bias=False)
          (bn): SyncBatchNorm(768, eps=1e-05, momentum=0.1, affine=True, track_running_stats=True)
          (activate): ReLU(inplace=True)
        )
      )
      (3): Sequential(
        (0): AdaptiveAvgPool2d(output_size=6)
        (1): ConvModule(
          (conv): Conv2d(768, 768, kernel_size=(1, 1), stride=(1, 1), bias=False)
          (bn): SyncBatchNorm(768, eps=1e-05, momentum=0.1, affine=True, track_running_stats=True)
          (activate): ReLU(inplace=True)
        )
      )
    )
    (bottleneck): ConvModule(
      (conv): Conv2d(3840, 768, kernel_size=(3, 3), stride=(1, 1), padding=(1, 1), bias=False)
      (bn): SyncBatchNorm(768, eps=1e-05, momentum=0.1, affine=True, track_running_stats=True)
      (activate): ReLU(inplace=True)
    )
    (lateral_convs): ModuleList(
      (0): ConvModule(
        (conv): Conv2d(768, 768, kernel_size=(1, 1), stride=(1, 1), bias=False)
        (bn): SyncBatchNorm(768, eps=1e-05, momentum=0.1, affine=True, track_running_stats=True)
        (activate): ReLU()
      )
      (1): ConvModule(
        (conv): Conv2d(768, 768, kernel_size=(1, 1), stride=(1, 1), bias=False)
        (bn): SyncBatchNorm(768, eps=1e-05, momentum=0.1, affine=True, track_running_stats=True)
        (activate): ReLU()
      )
      (2): ConvModule(
        (conv): Conv2d(768, 768, kernel_size=(1, 1), stride=(1, 1), bias=False)
        (bn): SyncBatchNorm(768, eps=1e-05, momentum=0.1, affine=True, track_running_stats=True)
        (activate): ReLU()
      )
    )
    (fpn_convs): ModuleList(
      (0): ConvModule(
        (conv): Conv2d(768, 768, kernel_size=(3, 3), stride=(1, 1), padding=(1, 1), bias=False)
        (bn): SyncBatchNorm(768, eps=1e-05, momentum=0.1, affine=True, track_running_stats=True)
        (activate): ReLU()
      )
      (1): ConvModule(
        (conv): Conv2d(768, 768, kernel_size=(3, 3), stride=(1, 1), padding=(1, 1), bias=False)
        (bn): SyncBatchNorm(768, eps=1e-05, momentum=0.1, affine=True, track_running_stats=True)
        (activate): ReLU()
      )
      (2): ConvModule(
        (conv): Conv2d(768, 768, kernel_size=(3, 3), stride=(1, 1), padding=(1, 1), bias=False)
        (bn): SyncBatchNorm(768, eps=1e-05, momentum=0.1, affine=True, track_running_stats=True)
        (activate): ReLU()
      )
    )
    (fpn_bottleneck): ConvModule(
      (conv): Conv2d(3072, 768, kernel_size=(3, 3), stride=(1, 1), padding=(1, 1), bias=False)
      (bn): SyncBatchNorm(768, eps=1e-05, momentum=0.1, affine=True, track_running_stats=True)
      (activate): ReLU(inplace=True)
    )
  )
  init_cfg={'type': 'Normal', 'std': 0.01, 'override': {'name': 'conv_seg'}}
  (auxiliary_head): FCNHead(
    input_transform=None, ignore_index=255, align_corners=False
    (loss_decode): CrossEntropyLoss(avg_non_ignore=False)
    (conv_seg): Conv2d(256, 150, kernel_size=(1, 1), stride=(1, 1))
    (dropout): Dropout2d(p=0.1, inplace=False)
    (convs): Sequential(
      (0): ConvModule(
        (conv): Conv2d(768, 256, kernel_size=(3, 3), stride=(1, 1), padding=(1, 1), bias=False)
        (bn): SyncBatchNorm(256, eps=1e-05, momentum=0.1, affine=True, track_running_stats=True)
        (activate): ReLU(inplace=True)
      )
    )
  )
  init_cfg={'type': 'Normal', 'std': 0.01, 'override': {'name': 'conv_seg'}}
)
2023-03-18 17:33:18,784 - mmseg - INFO - Loaded 20210 images
2023-03-18 17:33:24,740 - mmseg - INFO - Loaded 2000 images
…
